…
       [0., 0., 0., 1.],
       [1., 1., 1., 1.],
       [0., 1., 1., 1.],
       [0., 0., 0., 0.]])
Out[4]:
array([[-2.7509336 ],
       [-1.2140073 ],
       [-0.43552876],
       [-1.037529  ],
       [-3.0977473 ],
       [-2.1253715 ]], dtype=float32)
Out[5]:
array([[1., 1., 1., 0.],
       [0., 0., 0., 0.],
       [0., 0., 0., 1.],
       [1., 1., 1., 1.],
       [0., 1., 1., 1.],
       [0., 0., 0., 0.]])
Out[6]: tensor(0.1540, dtype=torch.float64)
Out[7]:
array([[… dtype=float32)
Out[8]:
SentenceClassificationModel(
  (transformer): BigBirdModel(
    (embeddings): BigBirdEmbeddings(
      (word_embeddings): Embedding(50358, 768, padding_idx=0)
      (position_embeddings): Embedding(4096, 768)
      (token_type_embeddings): Embedding(2, 768)
      (LayerNorm): LayerNorm((768,), eps=1e-12, elementwise_affine=True)
      (dropout): Dropout(p=0.1, inplace=False)
    )
    (encoder): BigBirdEncoder(
      (layer): ModuleList(
        (0): BigBirdLayer(
          (attention): BigBirdAttention(
            (self): BigBirdSelfAttention(
              (query): Linear(in_features=768, out_features=768, bias=True)
              (key): Linear(in_features=768, out_features=768, bias=True)
              (value): Linear(in_features=768, out_features=768, bias=True)
              (dropout): Dropout(p=0.1, inplace=False)
            )
            (output): BigBirdSelfOutput(
              (dense): Linear(in_features=768, out_features=768, bias=True)
              (LayerNorm): LayerNorm((768,), eps=1e-12, elementwise_affine=True)
              (dropout): Dropout(p=0.1, inplace=False)
            )
          )
          (intermediate): BigBirdIntermediate(
            (dense): Linear(in_features=768, out_features=3072, bias=True)
          )
          (output): BigBirdOutput(
            (dense): Linear(in_features=3072, out_features=768, bias=True)
            (LayerNorm): LayerNorm((768,), eps=1e-12, elementwise_affine=True)
            (dropout): Dropout(p=0.1, inplace=False)
          )
        )
        (1): BigBirdLayer(
          (attention): BigBirdAttention(
            (self): BigBirdSelfAttention(
              (query): Linear(in_features=768, out_features=768, bias=True)
              (key): Linear(in_features=768, out_features=768, bias=True)
              (value): Linear(in_features=768, out_features=768, bias=True)
              (dropout): Dropout(p=0.1, inplace=False)
            )
            (output): BigBirdSelfOutput(
              (dense): Linear(in_features=768, out_features=768, bias=True)
              (LayerNorm): LayerNorm((768,), eps=1e-12, elementwise_affine=True)
              (dropout): Dropout(p=0.1, inplace=False)
            )
          )
          (intermediate): BigBirdIntermediate(
            (dense): Linear(in_features=768, out_features=3072, bias=True)
          )
          (output): BigBirdOutput(
            (dense): Linear(in_features=3072, out_features=768, bias=True)
            (LayerNorm): LayerNorm((768,), eps=1e-12, elementwise_affine=True)
            (dropout): Dropout(p=0.1, inplace=False)
          )
        )
        (2): BigBirdLayer(
          (attention): BigBirdAttention(
            (self): BigBirdSelfAttention(
              (query): Linear(in_features=768, out_features=768, bias=True)
              (key): Linear(in_features=768, out_features=768, bias=True)
              (value): Linear(in_features=768, out_features=768, bias=True)
              (dropout): Dropout(p=0.1, inplace=False)
            )
            (output): BigBirdSelfOutput(
              (dense): Linear(in_features=768, out_features=768, bias=True)
              (LayerNorm): LayerNorm((768,), eps=1e-12, elementwise_affine=True)
              (dropout): Dropout(p=0.1, inplace=False)
            )
          )
          (intermediate): BigBirdIntermediate(
            (dense): Linear(in_features=768, out_features=3072, bias=True)
          )
          (output): BigBirdOutput(
            (dense): Linear(in_features=3072, out_features=768, bias=True)
            (LayerNorm): LayerNorm((768,), eps=1e-12, elementwise_affine=True)
            (dropout): Dropout(p=0.1, inplace=False)
          )
        )
        (3): BigBirdLayer(
          (attention): BigBirdAttention(
            (self): BigBirdSelfAttention(
              (query): Linear(in_features=768, out_features=768, bias=True)
              (key): Linear(in_features=768, out_features=768, bias=True)
              (value): Linear(in_features=768, out_features=768, bias=True)
              (dropout): Dropout(p=0.1, inplace=False)
            )
            (output): BigBirdSelfOutput(
              (dense): Linear(in_features=768, out_features=768, bias=True)
              (LayerNorm): LayerNorm((768,), eps=1e-12, elementwise_affine=True)
              (dropout): Dropout(p=0.1, inplace=False)
            )
          )
          (intermediate): BigBirdIntermediate(
            (dense): Linear(in_features=768, out_features=3072, bias=True)
          )
          (output): BigBirdOutput(
            (dense): Linear(in_features=3072, out_features=768, bias=True)
            (LayerNorm): LayerNorm((768,), eps=1e-12, elementwise_affine=True)
            (dropout): Dropout(p=0.1, inplace=False)
          )
        )
        (4): BigBirdLayer(
          (attention): BigBirdAttention(
            (self): BigBirdSelfAttention(
              (query): Linear(in_features=768, out_features=768, bias=True)
              (key): Linear(in_features=768, out_features=768, bias=True)
              (value): Linear(in_features=768, out_features=768, bias=True)
              (dropout): Dropout(p=0.1, inplace=False)
            )
            (output): BigBirdSelfOutput(
              (dense): Linear(in_features=768, out_features=768, bias=True)
              (LayerNorm): LayerNorm((768,), eps=1e-12, elementwise_affine=True)
              (dropout): Dropout(p=0.1, inplace=False)
            )
          )
          (intermediate): BigBirdIntermediate(
            (dense): Linear(in_features=768, out_features=3072, bias=True)
          )
          (output): BigBirdOutput(
            (dense): Linear(in_features=3072, out_features=768, bias=True)
            (LayerNorm): LayerNorm((768,), eps=1e-12, elementwise_affine=True)
            (dropout): Dropout(p=0.1, inplace=False)
          )
        )
        (5): BigBirdLayer(
          (attention): BigBirdAttention(
            (self): BigBirdSelfAttention(
              (query): Linear(in_features=768, out_features=768, bias=True)
              (key): Linear(in_features=768, out_features=768, bias=True)
              (value): Linear(in_features=768, out_features=768, bias=True)
              (dropout): Dropout(p=0.1, inplace=False)
            )
            (output): BigBirdSelfOutput(
              (dense): Linear(in_features=768, out_features=768, bias=True)
              (LayerNorm): LayerNorm((768,), eps=1e-12, elementwise_affine=True)
              (dropout): Dropout(p=0.1, inplace=False)
            )
          )
          (intermediate): BigBirdIntermediate(
            (dense): Linear(in_features=768, out_features=3072, bias=True)
          )
          (output): BigBirdOutput(
            (dense): Linear(in_features=3072, out_features=768, bias=True)
            (LayerNorm): LayerNorm((768,), eps=1e-12, elementwise_affine=True)
            (dropout): Dropout(p=0.1, inplace=False)
          )
        )
        (6): BigBirdLayer(
          (attention): BigBirdAttention(
            (self): BigBirdSelfAttention(
              (query): Linear(in_features=768, out_features=768, bias=True)
              (key): Linear(in_features=768, out_features=768, bias=True)
              (value): Linear(in_features=768, out_features=768, bias=True)
              (dropout): Dropout(p=0.1, inplace=False)
            )
            (output): BigBirdSelfOutput(
              (dense): Linear(in_features=768, out_features=768, bias=True)
              (LayerNorm): LayerNorm((768,), eps=1e-12, elementwise_affine=True)
              (dropout): Dropout(p=0.1, inplace=False)
            )
          )
          (intermediate): BigBirdIntermediate(
            (dense): Linear(in_features=768, out_features=3072, bias=True)
          )
          (output): BigBirdOutput(
            (dense): Linear(in_features=3072, out_features=768, bias=True)
            (LayerNorm): LayerNorm((768,), eps=1e-12, elementwise_affine=True)
            (dropout): Dropout(p=0.1, inplace=False)
          )
        )
        (7): BigBirdLayer(
          (attention): BigBirdAttention(
            (self): BigBirdSelfAttention(
              (query): Linear(in_features=768, out_features=768, bias=True)
              (key): Linear(in_features=768, out_features=768, bias=True)
              (value): Linear(in_features=768, out_features=768, bias=True)
              (dropout): Dropout(p=0.1, inplace=False)
            )
            (output): BigBirdSelfOutput(
              (dense): Linear(in_features=768, out_features=768, bias=True)
              (LayerNorm): LayerNorm((768,), eps=1e-12, elementwise_affine=True)
              (dropout): Dropout(p=0.1, inplace=False)
            )
          )
          (intermediate): BigBirdIntermediate(
            (dense): Linear(in_features=768, out_features=3072, bias=True)
          )
          (output): BigBirdOutput(
            (dense): Linear(in_features=3072, out_features=768, bias=True)
            (LayerNorm): LayerNorm((768,), eps=1e-12, elementwise_affine=True)
            (dropout): Dropout(p=0.1, inplace=False)
          )
        )
        (8): BigBirdLayer(
          (attention): BigBirdAttention(
            (self): BigBirdSelfAttention(
              (query): Linear(in_features=768, out_features=768, bias=True)
              (key): Linear(in_features=768, out_features=768, bias=True)
              (value): Linear(in_features=768, out_features=768, bias=True)
              (dropout): Dropout(p=0.1, inplace=False)
            )
            (output): BigBirdSelfOutput(
              (dense): Linear(in_features=768, out_features=768, bias=True)
              (LayerNorm): LayerNorm((768,), eps=1e-12, elementwise_affine=True)
              (dropout): Dropout(p=0.1, inplace=False)
            )
          )
          (intermediate): BigBirdIntermediate(
            (dense): Linear(in_features=768, out_features=3072, bias=True)
          )
          (output): BigBirdOutput(
            (dense): Linear(in_features=3072, out_features=768, bias=True)
            (LayerNorm): LayerNorm((768,), eps=1e-12, elementwise_affine=True)
            (dropout): Dropout(p=0.1, inplace=False)
          )
        )
        (9): BigBirdLayer(
          (attention): BigBirdAttention(
            (self): BigBirdSelfAttention(
              (query): Linear(in_features=768, out_features=768, bias=True)
              (key): Linear(in_features=768, out_features=768, bias=True)
              (value): Linear(in_features=768, out_features=768, bias=True)
              (dropout): Dropout(p=0.1, inplace=False)
            )
            (output): BigBirdSelfOutput(
              (dense): Linear(in_features=768, out_features=768, bias=True)
              (LayerNorm): LayerNorm((768,), eps=1e-12, elementwise_affine=True)
              (dropout): Dropout(p=0.1, inplace=False)
            )
          )
          (intermediate): BigBirdIntermediate(
            (dense): Linear(in_features=768, out_features=3072, bias=True)
          )
          (output): BigBirdOutput(
            (dense): Linear(in_features=3072, out_features=768, bias=True)
            (LayerNorm): LayerNorm((768,), eps=1e-12, elementwise_affine=True)
            (dropout): Dropout(p=0.1, inplace=False)
          )
        )
        (10): BigBirdLayer(
          (attention): BigBirdAttention(
            (self): BigBirdSelfAttention(
              (query): Linear(in_features=768, out_features=768, bias=True)
  )
  (dropout): Dropout(p=0.1, inplace=False)
  (classifier): Linear(in_features=768, out_features=1, bias=True)
  (loss_fct): BCEWithLogitsLoss()
)
Out[9]:
tensor([[1., 1., 1., 0.],
        [0., 0., 0., 0.],
        [0., 0., 0., 1.],
        [1., 1., 1., 1.],
        [0., 1., 1., 1.],
        [0., 0., 0., 0.]], dtype=torch.float64)
